Notes/class_9/stereo_parameters.npz (npz, 2044 bytes, 6 tensors)

name1 f8 [3, 3]
00000000: e133 4728 98c0 8040 0000 0000 0000 0000
00000010: a8aa 1b76 eb65 7540 0000 0000 0000 0000
00000020: 76f6 da3d 23c0 8040 a045 b11b 3471 6d40
00000030: 0000 0000 0000 0000 0000 0000 0000 0000
00000040: 0000 0000 0000 f03f
536.0742955744464 0.0 342.36998568351055 0.0 536.0172078234161 235.53761086104805 0.0 0.0
1.0

name2 f8 [1, 5]
00000000: d759 5633 3df7 d0bf c5f3 5938 0bed a7bf
00000010: 60f5 81ec 2309 5e3f 5c90 96a5 0c9f 34bf
00000020: 9a8d 3a9b 3025 d03f
-0.2650902749386694 -0.04673037588961607 0.0018332339114118454 -0.0003146558643385472 0.252269889441061

name3 f8 [3, 3]
00000000: 10a1 56db d9f2 8040 0000 0000 0000 0000
00000010: ad55 7dda 2e85 7440 0000 0000 0000 0000
00000020: bc69 8db3 eeec 8040 2a85 3602 4cde 6e40
00000030: 0000 0000 0000 0000 0000 0000 0000 0000
00000040: 0000 0000 0000 f03f
542.356375386038 0.0 328.323938836659 0.0 541.6165534065144 246.94677839897605 0.0 0.0
1.0

name4 f8 [1, 5]
00000000: 97a6 b215 54f4 d1bf 897e 3667 3bb4 ba3f
00000010: 5400 4358 374a 42bf 5590 3936 cc5d 553f
00000020: 9c17 0304 5c48 98bf
-0.2805376254933462 0.1043126227364103 -0.0005581636655947 0.0013041013961805532 -0.023713529343488568

name5 f8 [3, 3]
00000000: db1a c40c e1ff ef3f 1f66 1d47 b6e9 703f
00000010: 27ae 3b5d 92ec 6c3f 9b4d 6eb3 b7e8 70bf
00000020: ceb9 e50c eeff ef3f c7d4 2b80 f413 32bf
00000030: 2737 73a4 e5ee 6cbf 37e2 1fde 581f 313f
00000040: cac2 25d9 f2ff ef3f
0.9999852418266885 0.004129135153414092 0.003530774943887999 -0.004128186780593702 0.9999914409543693 -0.00027584761862382536 -0.003531883735923186 0.00026126784916827593
0.9999937287485292

name6 f8 [3, 1]
00000000: 7868 00dd 06c1 0ac0 07c6 71e7 b05c a53f
00000010: 2c84 b6f3 5b20 ab3f
-3.3442513719319855 0.041722801449292794 0.052981256008259286
